es_checkpoint.pt (torch, 328264 bytes, 30 tensors)

linear_layer.linears.paper.weight f4 [64, 334]
0	0xbc44f594	-0.012021441
1	0xbd33debd	-0.04391359
2	0xbd1e3f62	-0.038634665
3	0x3b4d260e	0.00313032
4	0xbc0c7fa4	-0.008575354
5	0xbcfc8387	-0.030824436
6	0x3ce9abb9	0.028524267
7	0x3ce1b14b	0.02755036
8	0xbb827882	-0.003981651
9	0xbc01c483	-0.007920387
10	0xbd1b0100	-0.03784275
11	0x3bb1e38c	0.005428737
12	0x3d9053a1	0.07047201
13	0xbc832057	-0.016006632
14	0xbd71355e	-0.058888786
15	0x3d04b723	0.032401215
16	0xbbbb3ae3	-0.005713807
17	0xbd3c95b0	-0.04604119
18	0xbc547a6b	-0.01296864
19	0xbd13511e	-0.03596603
20	0xbb529e2a	-0.003213773
21	0x3cde8153	0.027161276
22	0xbd4fe5a3	-0.050756108
23	0x3da66b4a	0.081259325
24	0xbd29f341	-0.04149175
25	0x3d9b7f86	0.075926825
26	0xbc9d0928	-0.019169405
27	0x3d389079	0.045059655
28	0x3cdb8e4d	0.026801253
29	0x3d15c788	0.03656724
30	0xbd7e8bae	-0.062144928
31	0x3bc27d42	0.005935342
32	0xbb19d5df	-0.0023473424
33	0xbd214b90	-0.039378703
34	0xbae1a07a	-0.0017213963
35	0x3cee3ac9	0.029080765
36	0x3d4880b8	0.04895088
37	0x3babfd93	0.0052487343
38	0x3c089aae	0.00833766
39	0xbd331893	-0.043724608
40	0x3d2a26f7	0.041541066
41	0x3cdd0e72	0.026984427
42	0xb9801ead	-0.00024436918
43	0xbce0127b	-0.027352562
44	0xbcc8f440	-0.02453053
45	0xbc86c5cf	-0.016451744
46	0xbc939f2d	-0.018020237
47	0xbd7e587a	-0.062096097
48	0x3b8bcfc4	0.004266711
49	0x3d205288	0.039141208
50	0x3c97fcb5	0.018553117
51	0xbd4a8b58	-0.049449295
52	0x3caa01e5	0.020752857
53	0xbc00de8a	-0.007865557
54	0x3cea6b19	0.028615521
55	0xbd28bb0f	-0.041194018
56	0xbc814d89	-0.015784042
57	0x3d020493	0.031742644
58	0x3c4eb41b	0.012616183
59	0xbc92323b	-0.017846217
60	0xbc87f1e0	-0.016594827
61	0xbc5191f3	-0.012791145
62	0x3c3c4ed0	0.0114934
63	0xbddc5c8c	-0.107598394
64	0xbdc7b02e	-0.097504005
65	0xbda7c212	-0.08191313
66	0xbc89e722	-0.016833846
67	0xbd8e0221	-0.06934
68	0x3c1f0cc9	0.009707638
69	0xbceb793d	-0.028744334
70	0x3bec8c39	0.0072188643
71	0x3d40b427	0.047046807
72	0xbd7beecc	-0.06150703
73	0xbd227b1a	-0.03966818
74	0xbd1c0a89	-0.038095985
75	0xba05b380	-0.0005100295
76	0x3ae25881	0.0017268808
77	0xbc99f1ee	-0.018792119
78	0xbd82ca4f	-0.063862436
79	0xbd23d895	-0.04000147
80	0xbd09772a	-0.03356091
81	0x3dbbcc3d	0.09169815
82	0x3cc4d852	0.02402893
83	0x3b0bcd8c	0.0021332232
84	0xbbcbae2c	-0.0062158313
85	0xbbd266ab	-0.0064209304
86	0x3ca49527	0.020090653
87	0x3d2ec358	0.042666763
88	0xbd169fd9	-0.036773536
89	0x3d73c034	0.05950947
90	0x3c438fb1	0.011936114
91	0xbbf04c11	-0.0073332866
92	0xbc9e15b3	-0.019297456
93	0x3ccadb92	0.024762902
94	0x3d39e8c6	0.045388006
95	0xbbeec5bd	-0.007286756
96	0xbcdbff81	-0.026855232
97	0x3d625311	0.055255
98	0x3d2e36cb	0.042532723
99	0x3c36ed88	0.01116503
100	0xbb6237f0	-0.0034518205
101	0x3d6f0e23	0.05836309
102	0xbd396bc4	-0.04526879
103	0x3baf267f	0.0053451653
104	0x3d1b32c0	0.037890196
105	0x3d0ed749	0.03487328
106	0x3d699b46	0.057032846
107	0x3d30cfd3	0.043166947
108	0x3c9764f0	0.018480748
109	0x3c2b1c79	0.0104438
110	0xbc80698a	-0.015675325
111	0xbd858ed8	-0.06521386
112	0xbcc45768	-0.02396746
113	0xbd4d7bbe	-0.050166838
114	0x3c3f4fdf	0.011676758
115	0xbbd3621c	-0.0064509045
116	0xba04a1d9	-0.00050595176
117	0x3ad25514	0.0016047084
118	0x3b568af1	0.0032736624
119	0x3c111477	0.008854977
120	0xbceca389	-0.028886573
121	0x3c498990	0.012300864
122	0xbc8ea3b5	-0.017412046
123	0x3d8aef0d	0.067838766
124	0xbcb43bd8	-0.022001192
125	0x3d1881f8	0.037233323
126	0x3cefe8b5	0.029285768
127	0x3d431106	0.047623657
128	0xbd19ba7c	-0.03753136
129	0xbc805c4a	-0.015669007
130	0xbbe1fde6	-0.006896722
131	0xbd064f8a	-0.032790698
132	0x3da990ca	0.082795694
133	0x3c4643d7	0.012101135
134	0x3ce29659	0.027659582
135	0x3d499716	0.049216352
136	0xbd71b5be	-0.059011213
137	0xbd96f9a0	-0.07371831
138	0x3c9131fe	0.017724033
139	0x3d196cef	0.037457403
140	0xbcb620d1	-0.022232445
141	0xbd2e8fb6	-0.042617522
142	0x3d16d6b1	0.03682584
143	0xbc808832	-0.015689943
144	0xbd22c29c	-0.039736375
145	0xbd1a1369	-0.037616167
146	0xbcaa0b79	-0.020757424
147	0xbc369dcb	-0.011146019
148	0xbcaebfc4	-0.021331675
149	0x3d7c5980	0.06160879
150	0xbd2c28bc	-0.042031035
151	0xbd252e89	-0.040327583
152	0x3d82284b	0.063553415
153	0xbcef85dc	-0.029238634
154	0xbc399a1d	-0.011328247
155	0xbcbbfe2f	-0.022948353
156	0xbc83e9d4	-0.016102709
157	0xbbf5078b	-0.007477706
158	0xbc4ae7d0	-0.01238437
159	0x3bf27e59	0.0074003157
160	0xbcb71991	-0.022351058
161	0xbc8500fd	-0.016235823
162	0xbdbc020c	-0.09180078
163	0xbbfc5e6f	-0.007701687
164	0x3b04a6bc	0.0020240983
165	0xbc18747c	-0.009305116
166	0x3b5da76f	0.0033821722
167	0xbd77f264	-0.060533896
168	0x3c18ed6a	0.009333948
169	0x3ba9019d	0.005157663
170	0xbd42332b	-0.04741208
171	0x3c499560	0.01230368
172	0x3d84f016	0.06491105
173	0x3b48f560	0.0030663833
174	0x3d3aa47f	0.045567032
175	0xbc92a6d1	-0.01790181
176	0xbb65ccd3	-0.0035064712
177	0xbcb74a3c	-0.022374265
178	0xbcc944d0	-0.024568945
179	0xbb0d9cf1	-0.0021608437
180	0x3ccc4289	0.02493407
181	0xba9da8cf	-0.0012028458
182	0x3c2d169d	0.010564473
183	0x3c30a349	0.010781118
184	0x3c9bc7b1	0.019016119
185	0xbb6643da	-0.0035135658
186	0x3c83555f	0.016031919
187	0xbd126f15	-0.035750467
188	0x3d3a02d2	0.045412846
189	0xbdb92777	-0.090407304
190	0x3adb47bb	0.0016729751
191	0x3c09abe5	0.008402799
192	0xbca5d9f7	-0.020245535
193	0x3d8165f3	0.063182734
194	0xbdacf887	-0.0844584
195	0x3a56f393	0.00081997475
196	0x3d04e67b	0.032446366
197	0xbc5fc2c4	-0.013657276
198	0x3d53455a	0.05157981
199	0x3b3f5be8	0.0029199068
200	0xbd702bd6	-0.058635555
201	0xbd2d4689	-0.042303596
202	0xbd540254	-0.051760033
203	0xbd6832e2	-0.05668915
204	0xbc5453b4	-0.0129594095
205	0x3d07762c	0.03307168
206	0xbc6710bf	-0.014103114
207	0x3cdc7ea2	0.026915852
208	0x3c2a390d	0.0103895785
209	0x3c014bc8	0.007891603
210	0xba3123af	-0.00067573314
211	0xbc860212	-0.01635841
212	0x3babcba0	0.00524278
213	0xbac78850	-0.0015223119
214	0xbcd70fe4	-0.026252694
215	0xbc0d51f4	-0.008625496
216	0xbc06c94b	-0.008226703
217	0xbc91f7bd	-0.017818326
218	0x3d1f77ab	0.038932484
219	0x3c04c8ea	0.008104542
220	0xbc96b3f0	-0.018396348
221	0xbd9513ca	-0.07279165
222	0xbd048089	-0.032349143
223	0xba0ea902	-0.0005442054
224	0x3daa13f0	0.08304584
225	0xba9afee6	-0.0011825233
226	0x3d2918ad	0.0412833
227	0x3b512e88	0.0031918604
228	0x3c18d8c3	0.009329024
229	0x3d01f4ed	0.03172772
230	0xbcd871c9	-0.026421444
231	0xbab4fdb2	-0.0013808517
232	0x3d01098f	0.031503256
233	0x3cbfe28b	0.023423454
234	0xbdd09aff	-0.10185813
235	0xbd0033e1	-0.031299476
236	0x3d4ada3c	0.04952453
237	0x3d67ba01	0.05657387
238	0x3ce22771	0.027606698
239	0xbbaba5bc	-0.005238263
240	0x3cd7de84	0.02635122
241	0x3d17b2e0	0.037035823
242	0x3d88520d	0.06656275
243	0x3d26e1cd	0.040742684
244	0xbd140fdd	-0.03614794
245	0xbcc08332	-0.023500059
246	0xbbc4564a	-0.005991732
247	0xbc1cde71	-0.009574519
248	0x3c3d15f3	0.011540878
249	0x3b4461ec	0.0029965593
250	0xbc4d694e	-0.012537314
251	0xbc6a630e	-0.014305843
252	0xba5f5781	-0.0008519814
253	0x3dc8f2c0	0.09811926
254	0x3d553912	0.05205638
255	0x3c11fbfb	0.0089101745

linear_layer.linears.paper.bias f4 [64]
0	0xbc2f3118	-0.010692857
1	0x3c3307ff	0.010927199
2	0xbcaf776f	-0.021419255
3	0x3b37e76e	0.0028061527
4	0x3cafb3b4	0.021447994
5	0xbd19bf2b	-0.037535828
6	0x3d12347c	0.035694584
7	0xbc3d74a6	-0.011563456
8	0xbaa293fc	-0.0012403722
9	0x3bd37415	0.006453047
10	0x3c68b3fd	0.014203069
11	0xbc4dc436	-0.012558987
12	0xbcf8dd4b	-0.030378958
13	0x3ccb9022	0.024849001
14	0xbca4587e	-0.020061728
15	0xbc1b3a43	-0.00947434
16	0xbcb1913f	-0.021675704
17	0x3c045b83	0.008078459
18	0x3d109e59	0.035307262
19	0x37716b75	1.4389739e-05
20	0xbcd864a9	-0.026415186
21	0x3d94ccf6	0.07265656
22	0x3cc50628	0.024050787
23	0xbc15cdf0	-0.009143338
24	0xbca662a2	-0.020310704
25	0x3c451b3f	0.012030422
26	0xbd56d37c	-0.05244778
27	0xb9011a61	-0.00012312226
28	0x3c1c619c	0.009544756
29	0xbd165575	-0.036702592
30	0x3baba044	0.005237611
31	0x3c2aa210	0.010414615
32	0xbcc07ad7	-0.023496075
33	0x3b4e96fe	0.0031523104
34	0xbd801e20	-0.06255746
35	0x3cfa971c	0.030589633
36	0x3c20aca0	0.009806782
37	0x3d5af192	0.053453036
38	0x3c7cda36	0.015432885
39	0xbcadc9c5	-0.021214375
40	0xbc396105	-0.011314635
41	0x3b1a320a	0.002352836
42	0xbae602f0	-0.0017548483
43	0x3aadf1ae	0.0013270879
44	0xbd7c3d32	-0.061581798
45	0xbb1a9cf9	-0.0023592098
46	0x3cbbdf84	0.022933729
47	0xbce8ece2	-0.028433267
48	0xbd320ab0	-0.043467224
49	0x3d003adf	0.031306144
50	0xbc966d70	-0.01836273
51	0x3d3a3b35	0.04546662
52	0xbcd26cb4	-0.0256866
53	0x3d2d915a	0.042374946
54	0xbd041f06	-0.03225615
55	0x3d0e5988	0.034753352
56	0xbcd940c0	-0.026520133
57	0x3cb2a774	0.021808363
58	0xbd66db3a	-0.056361414
59	0xbd37dbd5	-0.044887383
60	0xba5efb45	-0.000850607
61	0x3b26d0c6	0.0025454029
62	0xbcf10904	-0.029423244
63	0xbbbe1d7d	-0.005801855

linear_layer.linears.author.weight f4 [64, 334]
0	0x3a90771a	0.0011021823
1	0xbd262697	-0.040564146
2	0xbcfb79ad	-0.030697668
3	0xbc09e7c4	-0.008417074
4	0xbd21a93a	-0.039468028
5	0xbd222ae9	-0.039591704
6	0xb9a1fc3c	-0.00030896242
7	0x3c24fa4a	0.010069439
8	0xbc2b873e	-0.010469256
9	0xbc475670	-0.012166604
10	0xbc3aa676	-0.011392226
11	0x3becc0e0	0.007225141
12	0x3cba8ff8	0.022773728
13	0xbd3b1334	-0.04567261
14	0x3c789d11	0.015174166
15	0x3da987f9	0.08277888
16	0x3c81f6f7	0.015864832
17	0xbcf2d083	-0.029640442
18	0xbd14c683	-0.036322128
19	0xbd63c4c1	-0.05560756
20	0x3bdbc7ff	0.006707191
21	0x3c434ac0	0.011919677
22	0xbb9a5d85	-0.0047108554
23	0x3d8eef6b	0.06979259
24	0xbca87521	-0.020563664
25	0x3d9550c5	0.07290796
26	0x3b6dd710	0.0036291517
27	0x3c10acb3	0.008830237
28	0x3d36e370	0.044650495
29	0x3d81806e	0.06323324
30	0xbcde91d7	-0.027169151
31	0x3d231d07	0.039822605
32	0x3cd12c3c	0.025533788
33	0xbd5827dc	-0.052772388
34	0xbc312a73	-0.010813343
35	0xbc98e877	-0.018665535
36	0x3cfb262f	0.030657856
37	0x3c231f81	0.009956242
38	0x3cd2c057	0.02572648
39	0xbcb180e2	-0.021667901
40	0x3d26f98a	0.040765323
41	0x3c83c508	0.016085163
42	0x3bbd9087	0.0057850513
43	0xbd284432	-0.04108066
44	0xbb9752df	-0.0046180333
45	0x3b508be8	0.0031821672
46	0xbd0f50ee	-0.03498929
47	0xbd94927f	-0.072545044
48	0xbc9b6b3f	-0.018972037
49	0x3cc8a322	0.02449185
50	0x3c85342b	0.016260227
51	0xbcaf83fe	-0.021425243
52	0x3bf23f9e	0.0073928377
53	0xbbd21516	-0.006411205
54	0xbc764e36	-0.015033295
55	0xbb5eeb5b	-0.0034014795
56	0xbca775a6	-0.020441841
57	0x3d157232	0.03648586
58	0x3ba8abb1	0.0051474203
59	0x3c6fee78	0.014644258
60	0xbc043e74	-0.008071531
61	0xbc524cbd	-0.012835679
62	0x3b3b84ef	0.002861317
63	0xbbff2f3f	-0.0077876146
64	0xbd868625	-0.06568555
65	0xbd98ca7a	-0.07460494
66	0x3cc6e569	0.024279313
67	0xbc03b8e1	-0.008039684
68	0xbd0408d6	-0.03223499
69	0xbce7d12a	-0.02829798
70	0xba84dab1	-0.0010135976
71	0x3cbf4400	0.023347855
72	0xbd836038	-0.06414837
73	0xbc8415c2	-0.016123656
74	0x3b968e00	0.0045945644
75	0x3aa45703	0.0012538139
76	0xbc933ad7	-0.017972393
77	0x3bb67927	0.0055686417
78	0xbd297c57	-0.041378345
79	0xbca4aa5d	-0.020100767
80	0x3cc77271	0.024346562
81	0x3d573cb3	0.05254812
82	0x3cd279cf	0.025692848
83	0x3d14e44b	0.03635053
84	0xbba3a891	-0.00499446
85	0x3a6b4db6	0.00089761184
86	0xbcd8393d	-0.02639448
87	0x3d3845d6	0.044988476
88	0xbd0924c4	-0.033482328
89	0x3d0b4185	0.03399803
90	0x3b8341a0	0.004005626
91	0xbc91b0e7	-0.017784549
92	0x3bc55404	0.0060219783
93	0x3a4da174	0.0007844188
94	0x3d50173f	0.05080342
95	0x3b853109	0.0040646833
96	0xbc295234	-0.01033454
97	0x3cff4b66	0.031163882
98	0x3c871409	0.016489046
99	0x3cd56e88	0.026053682
100	0x3b524b15	0.003208821
101	0x3d2fd173	0.042924356
102	0xbd1f16b4	-0.03884001
103	0xbd4b8c20	-0.04969418
104	0x3d63fe63	0.055662524
105	0x3d9903be	0.07471417
106	0x3d19fb5e	0.037593238
107	0x3d831b1e	0.064016566
108	0x3a43e540	0.00074728206
109	0x3d03cd45	0.032178182
110	0xbca2fa9c	-0.01989489
111	0xbc260352	-0.010132628
112	0xbcddf321	-0.027093472
113	0xbc5bd453	-0.013417321
114	0xbba6164f	-0.0050685774
115	0xbc07a90c	-0.00828005
116	0x3b40be75	0.0029410396
117	0xbc205aa2	-0.009787234
118	0xba032afe	-0.000500366
119	0xbca5f8fb	-0.020260325
120	0x3b00b32f	0.0019638052
121	0x3bdbeb2b	0.006711384
122	0xba880cbe	-0.0010379774
123	0x3ba105b6	0.004914011
124	0xbc8fb462	-0.017542068
125	0xbbcdf818	-0.0062856786
126	0x3c9614f7	0.018320544
127	0xbb040a56	-0.0020147762
128	0xbc41db56	-0.011832079
129	0x3cc3a1a9	0.023880797
130	0x3bfd899b	0.007737351
131	0x3c57da84	0.013174657
132	0x3d188852	0.03723938
133	0x3c1842bb	0.0092932535
134	0xbcec473c	-0.028842561
135	0x3d212b55	0.039347965
136	0xbc55a31b	-0.013039376
137	0xbcd2d445	-0.025735984
138	0x3b09cbae	0.0021025944
139	0x3c165f9e	0.00917807
140	0x3bed626b	0.0072443984
141	0x3a5f489b	0.0008517594
142	0x3d777b7f	0.06042051
143	0xbc944ace	-0.018102076
144	0xbd23a3e4	-0.03995122
145	0x3b448c5f	0.0029990894
146	0x3c0c2242	0.00855309
147	0xbc11ed1d	-0.00890663
148	0x3ce21c7f	0.027601479
149	0x3cf30612	0.02966598
150	0xbd434685	-0.047674675
151	0x3b58cc46	0.003308074
152	0x3c9f45db	0.01944249
153	0xbca07997	-0.019589229
154	0xbba60c0d	-0.0050673545
155	0xbd7883fd	-0.06067275
156	0xbd24f70c	-0.040274665
157	0xbcc75c98	-0.024336144
158	0xbc7c8f78	-0.015415065
159	0xbd0fd408	-0.035114318
160	0xbbde9123	-0.006792204
161	0x3c37ea5c	0.011225309
162	0xbc8314fe	-0.01600122
163	0xbbbaded9	-0.005702835
164	0xbcee10dd	-0.029060775
165	0x3c831d1e	0.016005095
166	0x3d11e93a	0.035622813
167	0xbcd01191	-0.025399001
168	0x3c83376f	0.016017644
169	0x3c31be25	0.010848557
170	0x3cbf42dd	0.023347313
171	0xbcc27892	-0.023739133
172	0xba8f10c7	-0.0010915034
173	0xbc40798d	-0.01174773
174	0xbc3b1b54	-0.01142009
175	0xbc2194ed	-0.009862167
176	0x3c291417	0.010319731
177	0xbbdc9681	-0.0067318087
178	0xbca3ea0c	-0.020009063
179	0x3b313815	0.0027041484
180	0x3c960005	0.018310556
181	0x3cc9d80e	0.024639156
182	0x3c2b5573	0.010457384
183	0xbb82b9a3	-0.003989415
184	0xbbef9ad0	-0.0073121563
185	0xbc041369	-0.008061268
186	0x38a2ab29	7.756643e-05
187	0xbcdfe64a	-0.02733149
188	0x3cdf18cd	0.027233506
189	0xbd8a0137	-0.06738513
190	0x3c3cb96a	0.0115188155
191	0xba87cce4	-0.0010360745
192	0xbcbb3078	-0.02285026
193	0x3d302547	0.0430043
194	0xbcab6063	-0.020919984
195	0x3c698f97	0.014255426
196	0xbb052b2d	-0.0020319924
197	0xbd436a73	-0.04770894
198	0x3a538b66	0.0008069783
199	0x3c79bce0	0.015242785
200	0xbd54c2d6	-0.051943623
201	0xbcf28a06	-0.02960683
202	0xbd80b226	-0.06283979
203	0x3aaec961	0.0013335162
204	0xbc06ce23	-0.008227858
205	0x3d56980f	0.052391108
206	0x3c7aa72a	0.015298644
207	0x3bb4740a	0.005506997
208	0xbd305656	-0.043051086
209	0x3d55bf78	0.052184552
210	0x3c49481b	0.012285258
211	0x3c86666b	0.016406259
212	0x38e43641	0.00010881993
213	0xbcdc93cc	-0.026925944
214	0xbcb0d782	-0.021587137
215	0xbc8d034d	-0.017213488
216	0x3acabfca	0.0015468535
217	0xbcb9d87e	-0.02268624
218	0x3ce9e08a	0.028549451
219	0x3c06dff8	0.008232109
220	0x3cba10ec	0.022713147
221	0x3cf30c9c	0.029669099
222	0xbcf85589	-0.030314224
223	0x3c4c2b1d	0.012461451
224	0x3cd429bb	0.025898805
225	0xb8a1532c	-7.69257e-05
226	0x3d4b01db	0.049562316
227	0xbd0853f1	-0.033283178
228	0x3cbd40d3	0.0231022
229	0x3d1c3038	0.038131922
230	0x3b79f5cc	0.003814089
231	0xbc0ef61f	-0.008725672
232	0x3ce260fa	0.027634133
233	0x3c948b95	0.018132964
234	0xbb823d3e	-0.003974586
235	0xbd0a97dd	-0.033836234
236	0x3d54f816	0.051994406
237	0x3cabc501	0.020967962
238	0x3c370341	0.011170209
239	0xbba39bde	-0.004992946
240	0x3c5dd95c	0.013540592
241	0x3cdb14ab	0.026743254
242	0x3dc81c75	0.09771053
243	0x3c57184b	0.0131283505
244	0xbd07aad9	-0.033121917
245	0xbcae994b	-0.02131333
246	0xbc3f4bae	-0.011675758
247	0x3c3752b6	0.011189153
248	0x3bcca57d	0.0062453137
249	0x3c214195	0.009842296
250	0xbb297c12	-0.0025861305
251	0xbcb73ac6	-0.022366893
252	0xb911e37b	-0.0001391302
253	0x3bb790e2	0.005601988
254	0x3d72364e	0.05913382
255	0x3be84992	0.0070888484

linear_layer.linears.author.bias f4 [64]
0	0x3d275060	0.040848136
1	0x3b4f2081	0.0031605067
2	0xbcae4973	-0.021275258
3	0xbca71c8b	-0.020399353
4	0xbc54704e	-0.012966229
5	0x3d0250a6	0.031815194
6	0xbd22d5e3	-0.03975476
7	0xbcd2c596	-0.025728982
8	0xbd5395df	-0.0516566
9	0xbd20db6a	-0.03927175
10	0x3d023c25	0.03179564
11	0x3d3fd9ba	0.0468385
12	0x3c829e0e	0.015944507
13	0xbd546b94	-0.051860407
14	0x3cf05c54	0.0293409
15	0x3c1af67e	0.009458182
16	0xbd881a2a	-0.066456154
17	0xbb15da96	-0.0022865883
18	0xbb301cda	-0.0026872666
19	0x3ce7a425	0.028276512
20	0x3d249047	0.040176656
21	0x3d77f0da	0.06053243
22	0x3cb176f7	0.021663172
23	0x3d476780	0.04868269
24	0xbd72f4de	-0.059315555
25	0x3d06a5c9	0.03287295
26	0x3b413a84	0.002948434
27	0x3d992007	0.07476812
28	0x3d0bdcd7	0.034146156
29	0xbc6be96b	-0.014398913
30	0xbd20518a	-0.03914026
31	0xbb300e98	-0.0026864167
32	0x3d56757d	0.05235814
33	0x3c8cbf2b	0.017181
34	0xbc8a3c67	-0.016874505
35	0x3c3f2294	0.011665959
36	0xbcaee010	-0.021347076
37	0xbb888757	-0.0041665244
38	0x3c96d4bf	0.018411992
39	0xbd478432	-0.048710056
40	0x3c1fa340	0.009743512
41	0x3c710dcd	0.014712763
42	0x3d25e1cc	0.04049854
43	0x3cdce294	0.02696351
44	0xbd8bcfd0	-0.068267465
45	0xbce2e5d9	-0.02769749
46	0x3cb6313e	0.022240277
47	0x3d91e487	0.07123666
48	0x3d430d7c	0.04762028
49	0x3cfd4334	0.030915834
50	0x3cde200e	0.027114894
51	0xbd3cca01	-0.046091083
52	0x3abca628	0.001439278
53	0x3caf5d62	0.021406833
54	0xbab17c7f	-0.0013541131
55	0x3a072f0b	0.0005156851
56	0x3cead769	0.028667169
57	0x3d5517bf	0.0520246
58	0xbd4499d9	-0.047998283
59	0x3cb62817	0.022235913
60	0xbd8bd368	-0.06827432
61	0x3c9865d4	0.018603243
62	0x3cd8da8c	0.026471399
63	0xbd28f263	-0.041246783

linear_layer.linears.conference.weight f4 [64, 334]
0	0xbc4dac8e	-0.012553347
1	0x3d43da09	0.047815356
2	0x3d5c3fce	0.053771786
3	0x3cb72b0d	0.022359395
4	0x3b195a64	0.0023399824
5	0x3d2f8a03	0.042856228
6	0xbb7e536f	-0.0038807055
7	0x3cb49ecd	0.022048378
8	0xbcd3f590	-0.02587393
9	0xbba588a4	-0.005051689
10	0x3d42b41b	0.047535043
11	0xbceb0ea9	-0.028693514
12	0x3d2e23f6	0.042514764
13	0xbce91435	-0.028452018
14	0x3ce58c31	0.02802095
15	0x3d544724	0.051825657
16	0x3cb503b1	0.022096487
17	0xbca45667	-0.020060731
18	0xbce3ceb9	-0.027808534
19	0xbc2a44c5	-0.0103923725
20	0xbcec1ee9	-0.028823333
21	0xbc4f711e	-0.012661247
22	0xbbfe6be8	-0.0077643283
23	0xbc1c0bd0	-0.009524301
24	0xbc8ea4b3	-0.01741252
25	0x3d3f37e7	0.046684172
26	0x3d2e42b3	0.042544078
27	0x3c832651	0.016009482
28	0xbb3956ee	-0.0028280574
29	0x3c656dca	0.0140032265
30	0xbd03a891	-0.03214318
31	0x3c1f0a74	0.009707082
32	0x3c9ae11b	0.018906167
33	0x3ac61292	0.0015111736
34	0x3ca252b2	0.019814823
35	0x3cc2324d	0.023705626
36	0x3d340872	0.043953367
37	0xbc41fc0a	-0.011839876
38	0x3d46d12b	0.048539322
39	0x3d4d4769	0.05011693
40	0xbd0e3f83	-0.03472854
41	0x3c152972	0.00910412
42	0x3c973ad6	0.018460672
43	0x3d467426	0.04845061
44	0x3d43f051	0.047836605
45	0x3c86da28	0.016461447
46	0x3d149a67	0.036280062
47	0x3d5226b9	0.05130646
48	0xbd273716	-0.04082402
49	0x3d5f8170	0.0545668
50	0x3c749f87	0.014930612
51	0x3bdf2e1b	0.006810916
52	0x3d653ed1	0.05596811
53	0xbcbf9ba5	-0.023389647
54	0x3b5b6f26	0.0033482998
55	0xbc94315b	-0.01808994
56	0x3d25f175	0.040513474
57	0xbcfdba94	-0.030972756
58	0x3b2ace81	0.0026063027
59	0xbb7076b6	-0.003669185
60	0xba9b0c61	-0.0011829251
61	0xbc1c1805	-0.009527211
62	0x3d20811a	0.03918562
63	0x3d5d7f92	0.05407674
64	0x3bb5f023	0.005552308
65	0xbbd5c7d1	-0.006524064
66	0x3adc8154	0.0016823211
67	0xbb77572e	-0.0037741172
68	0xbb2c0fc4	-0.0026254514
69	0xbca175de	-0.019709524
70	0x3c8e4830	0.017368406
71	0x3b8202d6	0.003967623
72	0x3cf39267	0.029732896
73	0x3d538692	0.051642008
74	0x3b3e7378	0.0029060524
75	0xbceb08ce	-0.028690722
76	0x3d4a520a	0.049394645
77	0x3c1eb32d	0.0096862735
78	0x3cb5cf03	0.022193437
79	0xbd0ea090	-0.034821093
80	0xbd13fa05	-0.03612711
81	0xbc05443c	-0.008133944
82	0x3d43ef4d	0.047835637
83	0x3cf7e092	0.03025845
84	0x3aeeadeb	0.001820979
85	0x3d5a970c	0.053366706
86	0x3a91237a	0.0011073195
87	0x3d1567ad	0.036475826
88	0xbcec9cc8	-0.028883353
89	0xbb5ea045	-0.003397004
90	0x3d5ca376	0.053866826
91	0xbba40441	-0.00500539
92	0x3c6a9dff	0.014319896
93	0xbba7d9ac	-0.005122384
94	0x3d09e93a	0.033669688
95	0xbcb39d25	-0.021925518
96	0x3b80c0c6	0.0039292304
97	0xbc6c0c4a	-0.014407227
98	0x3d04cd48	0.032422334
99	0x3c8acd49	0.01694359
100	0xbc71f871	-0.014768706
101	0x3d19db17	0.037562456
102	0x3b2550ca	0.0025225156
103	0xbc04446c	-0.008072954
104	0x3d4d8790	0.05017811
105	0xbc54734b	-0.012966941
106	0x3d464844	0.04840876
107	0x3c31d1a2	0.010853203
108	0x3cc60beb	0.024175605
109	0xbcb97889	-0.022640483
110	0x3cb1b559	0.021692919
111	0x3c304881	0.010759474
112	0xbd130065	-0.035889048
113	0xbb87b234	-0.0041411165
114	0x3cfe729f	0.031060515
115	0x3d6f70df	0.05845725
116	0x3ce3ded8	0.027816221
117	0x3cff1a4b	0.031140467
118	0x3ccf23ce	0.025285628
119	0x3b54ffd6	0.0032501123
120	0x3d2283e7	0.039676573
121	0xbc84cac9	-0.016209977
122	0x3c543c3e	0.012953816
123	0x3d12ce48	0.035841256
124	0x3c2045e0	0.0097822845
125	0xbcf3a649	-0.029742377
126	0xbb2cac03	-0.0026347644
127	0x3ca9baa5	0.020718882
128	0x3c4521f3	0.01203202
129	0x3cfe570b	0.031047365
130	0xbcb2b8d5	-0.02181665
131	0x3c8e6471	0.017381879
132	0x3c54e8aa	0.012994925
133	0x3d4c82bc	0.049929366
134	0xbd0dc018	-0.034607023
135	0xbc1d6f13	-0.009609002
136	0x3c9be528	0.019030169
137	0xbc9c4c29	-0.019079285
138	0x3c13d602	0.009023191
139	0x39afed41	0.0003355537
140	0xbcff8caa	-0.031195004
141	0x3bfa2cc8	0.007634733
142	0x3cfb2772	0.030658457
143	0x3c3cbde1	0.01151988
144	0xbc21ce44	-0.009875838
145	0xbca3e447	-0.020006312
146	0x3b7adfd7	0.0038280392
147	0xbce9d8cb	-0.028545758
148	0x390606e5	0.00012781804
149	0x3d2eb36d	0.042651583
150	0xbd040562	-0.032231696
151	0x3d1f7e1b	0.038938623
152	0xbd0b3e2e	-0.033994846
153	0x3d094cba	0.033520438
154	0x3c645507	0.013936288
155	0x3d41c256	0.047304474
156	0x3ce881c0	0.028382182
157	0xbbe0674d	-0.006848252
158	0xbccaee3f	-0.024771808
159	0x3c0fe91b	0.008783604
160	0x3caa25e3	0.020770019
161	0xbbd1099e	-0.0063793203
162	0xbcdb483e	-0.026767846
163	0x3d666343	0.056247007
164	0x3d821916	0.06352441
165	0xba5a9dee	-0.00083395734
166	0x3c907759	0.017635034
167	0x3c1fc637	0.009751848
168	0xbc970245	-0.0184337
169	0x3d29e507	0.041478183
170	0xbc841595	-0.016123572
171	0xbca8a8dc	-0.02058833
172	0xbd066283	-0.03280879
173	0x3cfcd574	0.030863501
174	0x3d3c8d3c	0.04603313
175	0xbc8da24a	-0.0172893
176	0xbd162b29	-0.036662254
177	0x3cec8186	0.028870355
178	0x3ac014d5	0.0014654646
179	0x3be1a159	0.006885689
180	0x3c1452b1	0.009052918
181	0x3d504f53	0.0508569
182	0xbcc34f25	-0.02384145
183	0x3ce150ef	0.027504412
184	0x3ced5005	0.02896882
185	0xbcf856b7	-0.030314786
186	0x3d37d0ee	0.044876985
187	0xbc5c874f	-0.013459994
188	0x3c5917b8	0.013250284
189	0x3cafd8d9	0.021465706
190	0x3c88cce1	0.016699256
191	0xbb550ce9	-0.0032508916
192	0xbd13d7df	-0.036094543
193	0x3d29106f	0.041275438
194	0x3d222cad	0.039593387
195	0x3d302f24	0.043013707
196	0xbcad185a	-0.021129776
197	0x3cff518e	0.031166818
198	0x3d4937f5	0.04912563
199	0xbcbe7785	-0.02325035
200	0x3cf397da	0.029735494
201	0xbc223f31	-0.009902761
202	0xbd3ae385	-0.045627136
203	0x3ced6f7f	0.02898383
204	0x3c826ef0	0.01592204
205	0x3d005126	0.03132739
206	0x3d437936	0.047723018
207	0xbd704098	-0.05865535
208	0x3c5134a6	0.0127689
209	0xbc872f02	-0.016501907
210	0x3bcfc3d2	0.0063404823
211	0x3c9434ff	0.018091677
212	0x3ccce73c	0.025012605
213	0x3bfeacdd	0.0077720718
214	0xbd13fcb9	-0.036129687
215	0x3d5ed540	0.05440259
216	0x3b94c1b9	0.004539695
217	0x3d6b5ba4	0.057460442
218	0xbcabb7e1	-0.020961704
219	0x38fcfee7	0.00012063776
220	0x3d101df1	0.035184804
221	0xb8351732	-4.3175365e-05
222	0x3d5371f4	0.051622346
223	0xbb910391	-0.004425474
224	0xbcc43665	-0.023951719
225	0xbc7a36f5	-0.015271892
226	0xbc5d4e88	-0.013507493
227	0x3d2bdfee	0.041961603
228	0xbd090e92	-0.03346116
229	0x3d1bc282	0.038027294
230	0xbd6c01ee	-0.057619028
231	0xbcd38b85	-0.025823364
232	0x3d2853f1	0.041095678
233	0x3d533707	0.05156615
234	0x3d065460	0.03279531
235	0x3d09796b	0.03356306
236	0x3d3c500f	0.045974787
237	0xbba40cfe	-0.0050064316
238	0x3d1f42bd	0.038882006
239	0xbcc99bbe	-0.024610396
240	0xbc27a501	-0.010232211
241	0xbb1b7bc0	-0.0023724884
242	0xbb634624	-0.0034679258
243	0xbcacefe1	-0.021110477
244	0xbcbc010a	-0.022949714
245	0x3ce9e0a7	0.028549505
246	0xbcccba5f	-0.024991212
247	0xbd127eb5	-0.03576537
248	0x3cab68c3	0.020923978
249	0xbb81262e	-0.003941319
250	0xbd0f8aa8	-0.035044342
251	0x3d1876eb	0.037222784
252	0x3d38e952	0.045144387
253	0xbcc4c4be	-0.024019595
254	0x3d47acea	0.048748888
255	0x3c20ac64	0.009806726

linear_layer.linears.conference.bias f4 [64]
0	0x3c9d1d49	0.019179003
1	0xbcffcadc	-0.03122466
2	0xbd10a086	-0.035309337
3	0xbd56a518	-0.05240354
4	0xbcd1022b	-0.02551373
5	0x3d0cebef	0.03440469
6	0xbcfa824d	-0.03057971
7	0xbd08b125	-0.033372063
8	0xbc8a797d	-0.016903633
9	0xbb0acc21	-0.00211788
10	0x3c84fc55	0.016233603
11	0xbcf528ca	-0.029926676
12	0x3cbc6356	0.022996586
13	0xbc091ba1	-0.008368404
14	0x3d0a380e	0.033744864
15	0xbd56e9b0	-0.052468956
16	0x3bf0094e	0.007325328
17	0xbd0b8925	-0.034066338
18	0x3c8cff1e	0.017211493
19	0xbd02ee33	-0.031965446
20	0xbbad70ee	-0.0052930033
21	0xbc48b9a8	-0.012251295
22	0xbd457fd0	-0.048217595
23	0x3d2cc0bf	0.042176004
24	0x3d1d46cb	0.03839759
25	0xbc6e7bae	-0.014555855
26	0xbd02253e	-0.0317738
27	0xbccf425d	-0.0253002
28	0xbc07c99e	-0.008287815
29	0xba995ed8	-0.0011701239
30	0x3ca383ab	0.019960245
31	0xbc454015	-0.012039204
32	0x3d342d4c	0.04398851
33	0x3c099e7b	0.008399601
34	0x3b927dcf	0.004470564
35	0x3afab901	0.0019128622
36	0x3d2aa6a9	0.041662846
37	0xbd34e8e5	-0.044167418
38	0xbcf309fc	-0.029667847
39	0xbd63a39f	-0.055575963
40	0x3d203cbe	0.03912043
41	0xbd09be1e	-0.033628576
42	0x3cbb7468	0.022882655
43	0x3d25e4f0	0.040501535
44	0xbd47ea49	-0.048807416
45	0x3d49b830	0.04924792
46	0xbc7aeaa9	-0.015314736
47	0x3d640586	0.05566933
48	0x3ccd8105	0.025085935
49	0x3c3e82fc	0.011627909
50	0x3d41fd96	0.04736098
51	0xbd0235cd	-0.03178959
52	0x3d3fd386	0.046832584
53	0x3c22db9f	0.009940057
54	0xbc4e9585	-0.01260889
55	0x3c533e8e	0.012893332
56	0x3d4dd8ca	0.050255574
57	0x3c9fd556	0.019510906
58	0x3cb9f9a7	0.022702051
59	0x3d33deed	0.04391377
60	0xbd5862d0	-0.05282861
61	0xbd65ae5c	-0.056074485
62	0x3d0086d7	0.031378593
63	0xbcde472e	-0.02713355

MECCH_layers.0.layer_norm.author.weight f4 [64]
0	0x3f4dcc43	0.80389804
1	0x3f62e48b	0.8862998
2	0x3f617165	0.8806365
3	0x3f74d679	0.9563976
4	0x3f4d5756	0.8021139
5	0x3f78bada	0.9716011
6	0x3f729aa7	0.9476723
7	0x3f63acd6	0.889356
8	0x3f5383ae	0.826228
9	0x3f5faf32	0.873767
10	0x3f7516c0	0.9573784
11	0x3f8413cb	1.031854
12	0x3f7016d8	0.93784857
13	0x3f4c03d9	0.7969337
14	0x3f6a753b	0.9158513
15	0x3f4be2a3	0.79642695
16	0x3f65f121	0.8982106
17	0x3f4be51a	0.79646456
18	0x3f4ba044	0.7954142
19	0x3f8052c9	1.0025264
20	0x3f4be0c5	0.79639846
21	0x3f4bc414	0.79596066
22	0x3f890fb2	1.0707915
23	0x3f85d11c	1.045444
24	0x3f84bf5e	1.0370901
25	0x3f5f090e	0.8712319
26	0x3f7498aa	0.95545447
27	0x3f522154	0.82082105
28	0x3f75bf07	0.9599461
29	0x3f5d30a4	0.86402345
30	0x3f511d7d	0.8168562
31	0x3f6e2538	0.9302554
32	0x3f8b8b38	1.0901861
33	0x3f5abc6d	0.85443765
34	0x3f8354ee	1.0260293
35	0x3f54bcbc	0.83100486
36	0x3f6114c8	0.87922335
37	0x3f721c8c	0.9457481
38	0x3f5a8374	0.8535683
39	0x3f4e01e8	0.8047166
40	0x3f62962e	0.88510406
41	0x3f552ec9	0.83274513
42	0x3f8ed51c	1.1158786
43	0x3f829520	1.0201759
44	0x3f823fe6	1.017575
45	0x3f7bb0b1	0.98316485
46	0x3f63600a	0.8881842
47	0x3f4bed9d	0.79659444
48	0x3f746c8a	0.9547812
49	0x3f79c0d2	0.97559845
50	0x3f894df9	1.072692
51	0x3f6eff98	0.93358755
52	0x3f507442	0.81427395
53	0x3f56855f	0.8379726
54	0x3f869e8e	1.0517137
55	0x3f703beb	0.9384143
56	0x3f84a741	1.0363542
57	0x3f4c25b1	0.7974501
58	0x3f4c5193	0.7981197
59	0x3f83741f	1.0269812
60	0x3f54e5e0	0.8316326
61	0x3f4b5009	0.79419
62	0x3f4bd0ac	0.79615283
63	0x3f85d891	1.0456716

MECCH_layers.0.layer_norm.author.bias f4 [64]
0	0x3ca25bd2	0.019819174
1	0x3d19c392	0.037540026
2	0xbd230e89	-0.039808784
3	0x3d76745e	0.06016957
4	0xba4e988c	-0.00078810076
5	0x3d51ccda	0.051220752
6	0x3d0ec42e	0.03485506
7	0x3c3349a5	0.010942851
8	0xbcc2452f	-0.02371463
9	0xbd02ab22	-0.031901486
10	0x3ce35f08	0.027755275
11	0x3d7a7330	0.061145008
12	0xbd05a708	-0.032629997
13	0x3b6d65d4	0.0036224024
14	0xbce02b68	-0.027364448
15	0x3d42cc36	0.047558032
16	0x3d01728c	0.03160338
17	0xbd091cb5	-0.033474643
18	0xbcd51233	-0.026009655
19	0x3d7196b3	0.05898161
20	0x3d54c542	0.051945932
21	0x3ccd2e2c	0.02504643
22	0x3d8de12c	0.06927714
23	0x3cf53d9d	0.029936606
24	0x3ca0d3d9	0.019632267
25	0x3d9c312a	0.07626565
26	0x3d74e680	0.059790134
27	0x3d1fe669	0.039038096
28	0x3da41f3b	0.08013769
29	0x3d2ce337	0.042208876
30	0xbd03efa5	-0.032210965
31	0x3d6b6946	0.057473443
32	0xba8b3ed1	-0.0010623579
33	0x3c297e34	0.010345031
34	0x3d0f641b	0.035007577
35	0x3bb8d0b2	0.005640113
36	0xbb44cbcc	-0.00300287
37	0x3d84ca94	0.06483951
38	0xbce81a4f	-0.028332857
39	0x3d789685	0.06069042
40	0xbbdfdf63	-0.0068320497
41	0x3d930975	0.07179538
42	0x3de21397	0.11038893
43	0x3d8a3cde	0.06749891
44	0x3d106836	0.035255633
45	0x3d3db45c	0.046314582
46	0xba35ee6a	-0.00069401285
47	0x3bb1831c	0.005417241
48	0x3d8467d6	0.06465118
49	0x3db322a4	0.087468415
50	0x3d8a6732	0.06757964
51	0xbd09c975	-0.03363939
52	0xbd30e938	-0.043191165
53	0x3b69c0d6	0.0035667918
54	0x3d74fe66	0.059812926
55	0x3d1b601f	0.037933465
56	0x3bc4a9c8	0.006001685
57	0xbcffba38	-0.031216726
58	0xbd104fb6	-0.03523227
59	0x3d663dc1	0.056211237
60	0x3c3fce3f	0.011706888
61	0xbce842e6	-0.028352212
62	0xbcc8ebdd	-0.02452653
63	0x3cfa6543	0.030565863

MECCH_layers.0.layer_norm.conference.weight f4 [64]
0	0x3f4bc2f6	0.7959436
1	0x3f7a2e54	0.9772694
2	0x3f8a0674	1.0783219
3	0x3f87a0b6	1.059592
4	0x3f4b90ac	0.79517627
5	0x3f684ed0	0.9074526
6	0x3f801841	1.0007402
7	0x3f78d3aa	0.97197974
8	0x3f4b8ff7	0.7951655
9	0x3f4b8f0c	0.7951515
10	0x3f841110	1.0317707
11	0x3f744654	0.9541981
12	0x3f8219e9	1.0164157
13	0x3f504301	0.8135224
14	0x3f7f073c	0.99620414
15	0x3f5ab1bb	0.85427445
16	0x3f4ba905	0.7955478
17	0x3f789591	0.9710322
18	0x3f7c099d	0.9845217
19	0x3f7b7722	0.9822866
20	0x3f535fea	0.8256823
21	0x3f5ceccd	0.8629883
22	0x3f72e157	0.9487509
23	0x3f6aa4f5	0.91657954
24	0x3f56caf6	0.83903444
25	0x3f704ec9	0.93870217
26	0x3f4b8f86	0.79515874
27	0x3f69db4d	0.9135025
28	0x3f57e0fe	0.84327686
29	0x3f7b84a7	0.98249286
30	0x3f738f66	0.95140684
31	0x3f4b89e0	0.79507256
32	0x3f4b9591	0.79525095
33	0x3f78d35b	0.971975
34	0x3f4b8e5c	0.795141
35	0x3f4b8abc	0.79508567
36	0x3f4b9290	0.7952051
37	0x3f4b8702	0.7950288
38	0x3f57202e	0.8403348
39	0x3f5dcd7a	0.8664166
40	0x3f8159e1	1.0105554
41	0x3f4b8fab	0.79516095
42	0x3f4b92ec	0.7952106
43	0x3f80141c	1.0006137
44	0x3f4b8f82	0.7951585
45	0x3f4ba5a7	0.7954964
46	0x3f4b8f82	0.7951585
47	0x3f4b8f82	0.7951585
48	0x3f7eb850	0.9949999
49	0x3f4bafbc	0.79565024
50	0x3f768ff4	0.96313405
51	0x3f71dc81	0.9447709
52	0x3f8169ff	1.0110472
53	0x3f4b8f82	0.7951585
54	0x3f4b9971	0.7953101
55	0x3f714cd6	0.9425787
56	0x3f4b96af	0.795268
57	0x3f4bea69	0.79654557
58	0x3f4b8f82	0.7951585
59	0x3f5071a4	0.814234
60	0x3f4b8e54	0.7951405
61	0x3f4dda89	0.80411583
62	0x3f4b9569	0.79524857
63	0x3f7932c2	0.97343075

MECCH_layers.0.layer_norm.conference.bias f4 [64]
0	0xbc927e94	-0.017882623
1	0x3d8a8866	0.06764297
2	0x3d9a0b47	0.07521682
3	0x3d50a9e3	0.050943267
4	0x3b048d33	0.0020225763
5	0x3d893b4a	0.067007616
6	0x3d7b2934	0.06131859
7	0x3d4f204e	0.050567918
8	0x3c1c8b22	0.009554656
9	0x393bdfc7	0.00017917073
10	0x3d1668c8	0.03672102
11	0x3cdc6206	0.02690221
12	0x3dad0f24	0.084501535
13	0x3d405d2e	0.046963863
14	0x3ca320d8	0.019913122
15	0x3cf9c843	0.030491
16	0xbc20bb13	-0.009810227
17	0x3d44c07a	0.048035122
18	0x3dad2ade	0.08455442
19	0x3cecc104	0.02890063
20	0xbb93615e	-0.004497691
21	0x3d30b4da	0.043141223
22	0x3db8c404	0.09021762
23	0x3d4e85e0	0.050420642
24	0x3d4897de	0.048972957
25	0x3d036667	0.03208008
26	0x3a94b530	0.0011345502
27	0x3d2936d1	0.041312043
28	0x3d8afd3d	0.067865826
29	0x3c803f1a	0.01565509
30	0x3ce56c6a	0.028005797
31	0xbbdd5755	-0.0067547956
32	0xbcd65c97	-0.026167197
33	0x3d7b6959	0.061379764
34	0xbca72851	-0.020404967
35	0x3c25d4fd	0.010121581
36	0x3bb4f031	0.005521797
37	0xbce8d57c	-0.02842211
38	0xbceecebb	-0.029151311
39	0x3c042c89	0.008067259
40	0x3d6d4137	0.05792352
41	0x3b8ca9e2	0.0042927125
42	0x39e7cc5c	0.00044212013
43	0x3cfda8ac	0.030964218
44	0x00000000	0.0
45	0xbc8c53b7	-0.017129762
46	0x00000000	0.0
47	0x00000000	0.0
48	0x3d09dcb1	0.033657733
49	0xbc8eef92	-0.01744822
50	0x3d374998	0.04474792
51	0x3d8a45ae	0.067515716
52	0x3dba5972	0.090990916
53	0x00000000	0.0
54	0x3cf3d1f0	0.029763192
55	0x3c448008	0.011993416
56	0xbc8dcb1f	-0.01730877
57	0xbcbb3583	-0.022852665
58	0x00000000	0.0
59	0x3d865e1e	0.0656092
60	0x3b7f6c62	0.0038974513
61	0xbd003e1f	-0.031309243
62	0xbc8cd9ac	-0.017193638
63	0x3b996485	0.0046811723

MECCH_layers.0.layer_norm.paper.weight f4 [64]
0	0x3f4c11f6	0.79714906
1	0x3f8cca62	1.0999262
2	0x3f8e11f5	1.109923
3	0x3f81d227	1.0142258
4	0x3f4bd6f4	0.7962487
5	0x3f84e78d	1.0383164
6	0x3f8c35cd	1.0953919
7	0x3f8a9ee1	1.0829736
8	0x3f4c6647	0.7984356
9	0x3f8f48f8	1.1194143
10	0x3f85b6e4	1.0446439
11	0x3f8581ac	1.0430198
12	0x3f4bf40a	0.7966925
13	0x3f4d6043	0.8022501
14	0x3f8b8203	1.0899051
15	0x3f4b9808	0.79528856
16	0x3f8a240d	1.0792252
17	0x3f89f264	1.0777097
18	0x3f6df5ce	0.92953193
19	0x3f4b90a0	0.79517555
20	0x3f4b98d3	0.79530066
21	0x3f893be1	1.0721399
22	0x3f4b9613	0.7952587
23	0x3f8e5ae2	1.1121485
24	0x3f8eb43e	1.1148756
25	0x3f5fae3a	0.87375224
26	0x3f8b08d8	1.0862074
27	0x3f4eea4c	0.8082626
28	0x3f4b7c4d	0.7948654
29	0x3f6f1e0f	0.9340524
30	0x3f8f6e22	1.1205485
31	0x3f8e1600	1.1100464
32	0x3f8e5ca2	1.1122019
33	0x3f4cd493	0.8001186
34	0x3f8e24f9	1.1105033
35	0x3f4e8ba6	0.80681837
36	0x3f4b8fe4	0.79516435
37	0x3f8c1b2c	1.0945792
38	0x3f4b8b23	0.7950918
39	0x3f818086	1.0117347
40	0x3f8d19b9	1.1023475
41	0x3f85f350	1.0464878
42	0x3f4bfb4b	0.7968032
43	0x3f8cf289	1.1011516
44	0x3f8d6d3f	1.1048964
45	0x3f8023fc	1.0010982
46	0x3f6a007a	0.9140698
47	0x3f4bba5c	0.79581237
48	0x3f8fce43	1.1234821
49	0x3f5212eb	0.82060117
50	0x3f8950b1	1.072775
51	0x3f8e937a	1.1138756
52	0x3f8a59f3	1.08087
53	0x3f8d5a33	1.1043152
54	0x3f532fc4	0.8249476
55	0x3f4bc49c	0.7959688
56	0x3f907cba	1.1288064
57	0x3f4b9683	0.7952654
58	0x3f8d2682	1.1027377
59	0x3f834dfd	1.0258175
60	0x3f4b9347	0.795216
61	0x3f7becb4	0.98408055
62	0x3f4b8c3f	0.79510874
63	0x3f8de56b	1.1085638

MECCH_layers.0.layer_norm.paper.bias f4 [64]
0	0xbd30bfb2	-0.043151565
1	0x3d82e571	0.06391419
2	0x3dbe7e56	0.093014404
3	0x3dd15278	0.10220808
4	0xbd42c22e	-0.047548465
5	0x3de44cc5	0.11147455
6	0x3dd26741	0.102736
7	0x3db82271	0.08990944
8	0x3da2eb47	0.07955032
9	0x3dcbb2ca	0.09946211
10	0x3d37a32f	0.04483336
11	0x3cdd1ce6	0.026991319
12	0xbd0e7aba	-0.03478501
13	0x3de2796b	0.11058315
14	0x3dd36766	0.10322456
15	0xbc4c0017	-0.012451193
16	0x3d79150d	0.06081109
17	0x3dc40ea9	0.09573109
18	0x3dbb94d8	0.09159249
19	0x3d49635b	0.04916702
20	0x3d382981	0.044961456
21	0x3d4b2195	0.049592573
22	0xbd075dcd	-0.03304844
23	0x3dc59329	0.09647209
24	0x3d755a43	0.059900533
25	0x3cc58fc6	0.024116408
26	0x3e12655e	0.14296481
27	0x3d880290	0.06641114
28	0x3d7085cf	0.05872136
29	0x3db668d9	0.08906717
30	0x3e19d893	0.15024023
31	0x3df7ad35	0.120935835
32	0x3dc277d7	0.09495514
33	0xbd2c1d43	-0.042020094
34	0x3dcc7899	0.0998394
35	0x3d980dd2	0.07424511
36	0x3bbf5cbc	0.005839912
37	0x3da1dacc	0.0790306
38	0xba93b0ef	-0.001126794
39	0x3e0136cc	0.1261856
40	0x3da539e3	0.08067682
41	0x3d79b4a1	0.060963277
42	0xbd3ceec6	-0.04612615
43	0x3dc2f94c	0.09520206
44	0x3dc5ac25	0.096519746
45	0x3da9e3d8	0.08295411
46	0x3da39beb	0.07988723
47	0x3d3675d3	0.04454596
48	0x3df7072a	0.12061913
49	0x3dcf9cd2	0.10137333
50	0x3df51671	0.11967171
51	0x3de04c81	0.10952092
52	0x3dc7b689	0.09751613
53	0x3df11540	0.11771631
54	0x3dae0ed0	0.08498919
55	0xbd1ff609	-0.039052997
56	0x3dbc72c2	0.09201576
57	0xbc1be52b	-0.009515087
58	0x3de3d632	0.11124839
59	0x3dafd398	0.0858528
60	0x3c587125	0.0132105695
61	0x3d84921a	0.06473179
62	0xbba5375d	-0.005042
63	0x3dc16cb6	0.09444563

MECCH_layers.0.metapath_fuse.author.conv f4 [2, 64]
0	0x3eb33409	0.35000637
1	0x3eb2c37d	0.3491477
2	0x3ed9a945	0.42511955
3	0x3efcce4e	0.49376148
4	0x3f036148	0.51320314
5	0x3eecd9d2	0.46259934
6	0x3f05b713	0.52232474
7	0x3f088cc2	0.5333978
8	0x3eddbac4	0.43306553
9	0x3ebd11c3	0.36927614
10	0x3f08f1ff	0.53494257
11	0x3ed6177d	0.41814795
12	0x3eb834a0	0.3597765
13	0x3eba7d10	0.3642354
14	0x3ee122f3	0.43971977
15	0x3f1052cb	0.5637633
16	0x3f09669b	0.5367219
17	0x3f04c15f	0.5185756
18	0x3f0a3827	0.5399193
19	0x3ede8bdf	0.43466088
20	0x3eba2be4	0.3636161
21	0x3ec76dd4	0.3895098
22	0x3ed10c77	0.40829822
23	0x3ec67c59	0.38766745
24	0x3ec48c44	0.38388264
25	0x3ef280b7	0.47363827
26	0x3ebf4bc4	0.37362492
27	0x3eb15a48	0.34639192
28	0x3eaceaab	0.33772787
29	0x3ee7b89f	0.45258042
30	0x3efd3d57	0.4946086
31	0x3ee19922	0.44062144
32	0x3eef9e8d	0.46800652
33	0x3f042ed0	0.5163393
34	0x3ebc6d2f	0.3680205
35	0x3ed6bba8	0.41940045
36	0x3f05e48c	0.5230186
37	0x3ec89247	0.391741
38	0x3ecd17bc	0.4005717
39	0x3eb0c2b1	0.34523538
40	0x3ec5a5dd	0.38603106
41	0x3f0ad4cf	0.5423097
42	0x3ee3844b	0.4443687
43	0x3ed57103	0.41687784
44	0x3eda7109	0.42664364
45	0x3eff2dd7	0.4983966
46	0x3ea7ebbe	0.32797045
47	0x3f0bdeb2	0.5463668
48	0x3eb6e996	0.35725087
49	0x3ebfde29	0.37474182
50	0x3ee4391f	0.4457483
51	0x3eaf2cb1	0.34213784
52	0x3ea3b6b4	0.3197533
53	0x3ed45b32	0.41475827
54	0x3ef291d8	0.47376895
55	0x3eaf7a50	0.34273005
56	0x3ec18cb4	0.3780266
57	0x3ef630b5	0.48084036
58	0x3f0d9551	0.55305964
59	0x3ec6626c	0.38746965
60	0x3f068d39	0.5255924
61	0x3f029d75	0.5102151
62	0x3eae8f5e	0.34093755
63	0x3f0ea34f	0.5571794
64	0x3edc8a48	0.4307425
65	0x3ee53eda	0.44774514
66	0x3eda0c06	0.42587298
67	0x3ee5b45a	0.4486416
68	0x3ef4c073	0.47803077
69	0x3f09c3c7	0.5381436
70	0x3ef8f2c5	0.48622718
71	0x3f1381a6	0.576197
72	0x3ee92018	0.45532298
73	0x3ef2b04c	0.4740013
74	0x3ef3b115	0.4759604
75	0x3ed25530	0.41080618
76	0x3ed8ced5	0.423453
77	0x3eea8672	0.458057
78	0x3efd3fda	0.49462777
79	0x3ef689ea	0.48152095
80	0x3ef3cb27	0.4761593
81	0x3f06682c	0.52502704
82	0x3f034ad5	0.5128606
83	0x3ef58bbc	0.4795817
84	0x3ee50335	0.4472901
85	0x3eea41e7	0.45753404
86	0x3f018b14	0.5060284
87	0x3eef0dcb	0.4669021
88	0x3ef223c3	0.4729291
89	0x3efd9cd2	0.49533707
90	0x3ee52fe6	0.44763106
91	0x3eeba71e	0.46025938
92	0x3ed4534f	0.4146981
93	0x3eedeb7c	0.46468723
94	0x3ef8f003	0.48620614
95	0x3ef8bd89	0.48582104
96	0x3eee4c82	0.46542746
97	0x3ee84901	0.45368198
98	0x3ee832f9	0.4535139
99	0x3eef83f2	0.46780354
100	0x3ee9bd06	0.45652026
101	0x3ee7110a	0.45130187
102	0x3ee8df13	0.45482692
103	0x3efc4393	0.49270305
104	0x3ee9334d	0.45546952
105	0x3ef17d56	0.47165936
106	0x3f050c5c	0.51971984
107	0x3ee5ba2b	0.44868597
108	0x3ec897d5	0.3917834
109	0x3f0129aa	0.504542
110	0x3ee56227	0.44801447
111	0x3f02ab51	0.5104266
112	0x3ec944e6	0.39310378
113	0x3edfb3e8	0.43691945
114	0x3efa7713	0.4891897
115	0x3ef88a55	0.4854304
116	0x3ef11411	0.47085622
117	0x3edc1bd3	0.42989978
118	0x3eeb374c	0.45940626
119	0x3eded3b1	0.43520883
120	0x3edfec68	0.4373505
121	0x3efc3bc7	0.49264356
122	0x3eed05b9	0.4629343
123	0x3ed9fd92	0.4257627
124	0x3efdf800	0.4960327
125	0x3ef183e0	0.47170925
126	0x3ee32e7d	0.44371405
127	0x3f032437	0.51227134

MECCH_layers.0.metapath_fuse.author.linear.weight f4 [64, 64]
0	0x3de3aa32	0.111164466
1	0x3d4786f8	0.0487127
2	0xbd1f0dc8	-0.038831502
3	0xbd8b5d89	-0.0680495
4	0xbd8799fa	-0.066211656
5	0xbd2d383f	-0.04228997
6	0xbc30163f	-0.010747491
7	0x3dace1f8	0.084415376
8	0x3bf9c822	0.0076227346
9	0x3d2966ef	0.04135793
10	0xbdd5e0a5	-0.10443238
11	0xbc85ca46	-0.016331803
12	0x3d371947	0.04470184
13	0x3def5b27	0.11687308
14	0x3c5a8996	0.013338467
15	0x3ce1191c	0.027477793
16	0xbdf32d52	-0.118738785
17	0xbd570569	-0.052495394
18	0x3db222f8	0.08698076
19	0x3d96423f	0.07336854
20	0xbcf432b6	-0.029809337
21	0x3bfff049	0.0078106266
22	0xbd904941	-0.07045222
23	0x3d993be1	0.07482124
24	0x3c08bf8d	0.0083464505
25	0xbda1614c	-0.07879886
26	0x3da947ed	0.08265672
27	0xbbb7f5fb	-0.00561404
28	0xbd85481b	-0.06507894
29	0x3cb19e8c	0.021682046
30	0xbcfa0bd6	-0.030523222
31	0xbddc67de	-0.107619986
32	0xbd0611d7	-0.032731857
33	0xbcfa4499	-0.030550288
34	0xbc598d02	-0.013278248
35	0x3d9aa7bf	0.07551526
36	0x3c509013	0.0127296625
37	0xbe0903ba	-0.13380328
38	0xbd3a95d9	-0.045553062
39	0x3ddc764c	0.10764751
40	0x3d01be8e	0.031675868
41	0x3c804b55	0.015660921
42	0xbd500d7d	-0.050794113
43	0xbd8c914a	-0.06863649
44	0xbd09b866	-0.03362312
45	0xbd194794	-0.037421778
46	0x3d98225b	0.07428428
47	0xbd7ed7d1	-0.062217537
48	0xbc86930b	-0.016427537
49	0xbd0ba083	-0.034088623
50	0xbd33629b	-0.04379521
51	0xbc62377d	-0.013807175
52	0x3d28de62	0.041227706
53	0x3d737c24	0.05944456
54	0xbc09b01f	-0.008403807
55	0x3c99be08	0.018767372
56	0x3c60fdba	0.013732368
57	0x3d5592a2	0.052141793
58	0x3d644517	0.05572995
59	0x3d657eb5	0.05602904
60	0xbc868158	-0.016419098
61	0xbbd341c6	-0.00644705
62	0x3d9bb7a0	0.07603383
63	0x3c1c1025	0.0095253335
64	0xbc1df842	-0.009641709
65	0x3dcf51e3	0.101230405
66	0xbc6db5e1	-0.014508695
67	0xbdc7b35f	-0.09751009
68	0xbdf7000e	-0.12060557
69	0x3c1535fd	0.00910711
70	0xbe19b769	-0.15011372
71	0xbcc7b51b	-0.02437835
72	0x3dc1ce80	0.09463215
73	0xbd9ecb26	-0.07753591
74	0x3db64586	0.08899979
75	0xbd8d554e	-0.06901036
76	0x3d4a5de7	0.04940596
77	0xbd5342af	-0.051577266
78	0xbd8ed901	-0.06974984
79	0x3d44949a	0.04799328
80	0xbd661ef7	-0.056181874
81	0xbd638f9f	-0.05555689
82	0xba922f1e	-0.0011152958
83	0x3e0488e7	0.12942849
84	0x3de8ae82	0.1136141
85	0xbdc4de24	-0.096126825
86	0xbd91a7a3	-0.07112052
87	0x3dcc25e2	0.09968163
88	0xbcd49b3a	-0.025952924
89	0x3c30371d	0.0107553275
90	0x3d5da078	0.054108113
91	0xbe05b8ef	-0.13058828
92	0x3c1f2998	0.009714507
93	0xbde0782b	-0.1096042
94	0xbde3b677	-0.11118787
95	0xbd15543e	-0.036457293
96	0xbe1831b8	-0.14862716
97	0xbdc91470	-0.09818351
98	0xbe07cebc	-0.13262457
99	0xbda2d49b	-0.079507075
100	0x3d928c33	0.07155647
101	0xbda705b7	-0.08155387
102	0x3d3d13d2	0.04616148
103	0xbd1f7ca8	-0.03893724
104	0x3d989bf1	0.074516185
105	0x3e095c45	0.13414104
106	0x3dbedf72	0.093199626
107	0x3cd20fbd	0.02564227
108	0xbda1436d	-0.078741886
109	0xbd7b2dfb	-0.061323147
110	0x3abbbb3c	0.0014322768
111	0x3da59221	0.080845125
112	0x3d0ae642	0.033910997
113	0xbd9bba9b	-0.076039515
114	0x3de216c6	0.110395
115	0x3d775762	0.06038607
116	0xbe099af0	-0.1343801
117	0xbbb61845	-0.0055570924
118	0x3bf38b70	0.0074323937
119	0x3d5648d6	0.052315556
120	0x3d3aa330	0.045565784
121	0x3e038859	0.12844981
122	0x3d5f0f1b	0.054457765
123	0x3dbae7f9	0.091262765
124	0xbc59c2ad	-0.013291043
125	0xbc922527	-0.017839981
126	0x3d8307fb	0.063980065
127	0xbd386227	-0.04501548
128	0x3d6dde0f	0.0580731
129	0xbdbb2e77	-0.09139722
130	0xbd8cb042	-0.06869556
131	0x3dca4e0c	0.098781675
132	0x3a3b3bfa	0.0007142421
133	0xbdac61d4	-0.08417097
134	0x3c8ae8b1	0.016956659
135	0xbd6a314b	-0.057175916
136	0xbdfaed94	-0.12252346
137	0xbc998de8	-0.018744424
138	0xbd239040	-0.03993249
139	0xbe0a2f5f	-0.13494633
140	0x3d4a001e	0.049316518
141	0x3d0c095f	0.034188624
142	0xbd8e9987	-0.06962877
143	0x3d8de4c1	0.06928397
144	0xbda66ba6	-0.08126001
145	0x3d9fe3a0	0.07807088
146	0xbd5d2035	-0.053985793
147	0xbcc61617	-0.024180455
148	0x3d71c2e6	0.05902376
149	0x3dd33c4d	0.10314236
150	0x3db682a8	0.089116395
151	0xbd29146d	-0.041279245
152	0xbd9bb685	-0.07603172
153	0x3b4bfbbb	0.0031125385
154	0x3c99ea74	0.018788554
155	0xbd862a7c	-0.06551072
156	0xbdc1caff	-0.094625466
157	0xbdf537d9	-0.11973543
158	0x3e0e11e1	0.13874008
159	0xbd260df9	-0.04054067
160	0x3db2bccb	0.08727416
161	0x3d811653	0.06303086
162	0xbcc71af7	-0.02430485
163	0x3d9e0e23	0.0771754
164	0xbc1732a1	-0.009228379
165	0x3d45876b	0.048224848
166	0xbbd903b6	-0.006622757
167	0xbc0cef46	-0.008601969
168	0x3d873c69	0.06603319
169	0x3bff7363	0.0077957376
170	0xbce6850d	-0.028139615
171	0xbdf08fd9	-0.11746187
172	0xbad6353f	-0.0016342773
173	0x3deb9a2c	0.11504015
174	0xbd49385f	-0.049126025
175	0xb918262b	-0.00014510068
176	0x3d97ef10	0.074186444
177	0x3daa20bb	0.08307024
178	0x3d028652	0.03186638
179	0x3cf11122	0.029427115
180	0xbdd41778	-0.10356039
181	0xbd7b0c08	-0.06129077
182	0xbb8a4b1e	-0.0042203804
183	0x3d86a7ab	0.06574949
184	0x3d97055f	0.07374071
185	0x3d5e2c57	0.054241505
186	0x3d255041	0.04035974
187	0x3d891bda	0.066947654
188	0x3d7a6e1c	0.061140165
189	0xbcc8a435	-0.024492363
190	0xbd8615f1	-0.06547154
191	0x3dd7a61e	0.10529731
192	0xbd3b8f96	-0.04579123
193	0xbcd1d66c	-0.02561494
194	0xbb02f48a	-0.0019982182
195	0xbda7185a	-0.081589416
196	0xbdc7fd07	-0.09765058
197	0xbdb7ba50	-0.08971083
198	0x3ccd8021	0.02508551
199	0x3e364ba6	0.17802295
200	0x3dcc6cbf	0.09981679
201	0xbd51ddf8	-0.051237077
202	0x3cc6e870	0.024280757
203	0x3d6528e7	0.05594721
204	0x3d979e12	0.074031964
205	0x3cea9d6a	0.028639514
206	0xbd2efd1e	-0.04272186
207	0x3dd420c2	0.103578106
208	0x3d928ecc	0.071561426
209	0xbe1a9e79	-0.15099515
210	0x3dc21cb6	0.094781324
211	0x3d123971	0.03569931
212	0x3d5df3ab	0.054187458
213	0xbdaf7894	-0.0856792
214	0x3d1d0dda	0.038343288
215	0xbd6a34ad	-0.05717914
216	0xbc80118c	-0.015633367
217	0xbd678096	-0.056519113
218	0x3ba7d0da	0.0051213326
219	0x3db949a4	0.09047249
220	0xbd971bb0	-0.07378328
221	0x3d3e6a8e	0.046488337
222	0xbcc82f67	-0.024436666
223	0xbe294a93	-0.16532354
224	0xbde7c686	-0.11317162
225	0xbbc300de	-0.005951031
226	0xbe0c1113	-0.13678388
227	0x3dd81b9c	0.10552141
228	0xbd732459	-0.059360836
229	0xbe20b75f	-0.1569495
230	0x3e0541d8	0.13013399
231	0xbdcd9b1d	-0.10039351
232	0xbd34289d	-0.043984044
233	0x3cb35f08	0.0218959
234	0xbd104ba2	-0.03522838
235	0xbcc97f65	-0.02459688
236	0xbcf1891e	-0.029484328
237	0xbd9fbfb6	-0.07800238
238	0xbe02ef3a	-0.1278657
239	0xbd21fdf7	-0.03954884
240	0x3dde795a	0.1086299
241	0xbd489970	-0.048974454
242	0x3dedda82	0.11613943
243	0xbda306c3	-0.07960274
244	0xbdeaba4b	-0.11461314
245	0xbda49243	-0.0803571
246	0x3e1f4ca6	0.15556583
247	0xbda1e27e	-0.07904528
248	0x3e1d9f34	0.15392762
249	0x3de2711a	0.11056729
250	0xbd657a74	-0.056024984
251	0xbd4f3be3	-0.05059422
252	0x3be1b2f2	0.006887787
253	0xbc6ecb9f	-0.014574914
254	0xbcb6e6ba	-0.022326816
255	0x3d5f4d74	0.054517224

MECCH_layers.0.metapath_fuse.author.linear.bias f4 [64]
0	0xbe048e9a	-0.12945023
1	0xbd765aac	-0.060145065
2	0x3c896b27	0.016774727
3	0xbddf0f91	-0.10891641
4	0x3d8f2b92	0.06990732
5	0x3d3c88e3	0.046028983
6	0x3c104b6c	0.0088070445
7	0x3b4a042b	0.0030825238
8	0xbd880971	-0.06642426
9	0x3a4213a7	0.0007403441
10	0x3d9e3e06	0.07726674
11	0x3ca826a3	0.020526236
12	0x3dc3376c	0.09532055
13	0x3c71dba5	0.01476184
14	0x3ce45bdb	0.027875831
15	0xbdfecf2f	-0.12441861
16	0xbca0e6ce	-0.019641306
17	0xbd93d240	-0.072178364
18	0xbd2cd9c4	-0.042199865
19	0x3e0241e7	0.12720452
20	0xbda1bede	-0.07897733
21	0x3d080ce7	0.03321543
22	0x3d034b40	0.032054186
23	0xb9d3ce71	-0.00040398867
24	0x3c414ef8	0.011798613
25	0xbdd07282	-0.10178091
26	0xbd53840b	-0.051639598
27	0xbd9d5cd2	-0.0768372
28	0x3e0b416a	0.13599172
29	0x3d994feb	0.07485946
30	0xbd2ccc1b	-0.042186838
31	0xbd37e21d	-0.044893373
32	0xbd022674	-0.031774953
33	0x3c726214	0.014793891
34	0x3d765cf1	0.06014723
35	0x3c2f9f74	0.010719169
36	0xbd68c78d	-0.05683093
37	0xbde9e158	-0.11419934
38	0x3d89b85e	0.067246184
39	0xbdc40f12	-0.09573187
40	0xbdada334	-0.08478394
41	0xbda5a847	-0.08088737
42	0x3d89dfbe	0.067321286
43	0xbde67f0b	-0.112547
44	0x3d4cc884	0.049995914
45	0x3dcc5273	0.099766634
46	0x3daf98fc	0.08574101
47	0xbd9aa4b9	-0.075509496
48	0x3d138d53	0.03602345
49	0x3d2ce2c4	0.042208448
50	0x3b97536a	0.004618098
51	0x3db86596	0.09003751
52	0xbdfcb264	-0.12338713
53	0x3cb1c70a	0.021701355
54	0x3df26b90	0.11836922
55	0xbd3c076b	-0.04590551
56	0x3d7f7c46	0.062374376
57	0xbcd8845c	-0.026430301
58	0xbc0d567e	-0.008626578
59	0xbd115041	-0.035476927
60	0xbb2aa107	-0.0026035921
61	0xbcc7df74	-0.024398543
62	0xbda8c0d4	-0.08239904
63	0x3dee2b85	0.116293944
